…
ame.find 'BatchNorm'  != -1:         nn.init.normal_ m.weight.data, 1.0, 0.02          nn.init.constant_ m.bias.data, 0  >>generator.apply weights_init  >>discriminator.apply weights_init   [ 116 ]   Exploring Generative Adversarial Networks  Chapter 6  3.  Then we print the summary of our generator:  >>summary generator,  100,     This gives us the following output:  ----------------------------------------------------------------         Layer  type                Output Shape         Param  ================================================================             Linear-1                [-1, 12544]       1,266,944    ConvTranspose2d-2          [-1, 128, 14, 14]         524,416        BatchNorm2d-3          [-1, 128, 14, 14]             256          LeakyReLU-4          [-1, 128, 14, 14]               0    ConvTranspose2d-5           [-1, 64, 14, 14]          73,792        BatchNorm2d-6           [-1, 64, 14, 14]             128          LeakyReLU-7           [-1, 64, 14, 14]               0    ConvTranspose2d-8            [-1, 1, 28, 28]           1,025               Tanh-9            [-1, 1, 28, 28]               0 ================================================================ Total params: 1,866,561 Trainable params: 1,866,561 Non-trainable params: 0 ---------------------------------------------------------------- Input size  MB : 0.00 Forward backward pass size  MB : 0.97 Params size  MB : 7.12 Estimated Total Size  MB : 8.09 ----------------------------------------------------------------  4.  Then we will print the discriminator summary:  >>summary discriminator,  1, 28, 28    This gives us the following output:  ----------------------------------------------------------------         Layer  type                Output Shape         Param  ================================================================             Conv2d-1           [-1, 32, 14, 14]             320          LeakyReLU-2           [-1, 32, 14, 14]               0             Conv2d-3             [-1, 64, 7, 7]          18,496        BatchNorm2d-4             [-1, 64, 7, 7]             128          LeakyReLU-5             [-1, 64, 7, 7]               0             Conv2d-6            [-1, 128, 4, 4]          73,856        BatchNorm2d-7            [-1, 128, 4, 4]             256          LeakyReLU-8            [-1, 128, 4, 4]               0             Linear-9                    [-1, 1]           2,049 ================================================================  [ 117 ]   Exploring Generative Adversarial Networks  Chapter 6  Total params: 95,105 Trainable params: 95,105 Non-trainable params: 0 ---------------------------------------------------------------- Input size  MB : 0.00 Forward backward pass size  MB : 0.21 Params size  MB : 0.36 Estimated Total Size  MB : 0.58 -------------------
…
